…
3530
951
1005
1619
1304
1856
3318
1335
2545
1821
880
401
1238
889
21
2944
3298
1344
1381
581
3658
1840
2702
3536
1363
1065
2137
2884
2075
3238
558
3597
1099
169
2042
1603
1114
233
1832
3276
960
3555
2863
2477
1095

aspect_weights:
{'food': 0.9290573372206025, 'service': 0.9300699300699301, 'price': 0.873170731707317, 'ambience': 0.822742474916388, 'misc': 0.952952952952953}
_________________________________________________________________
Layer (type)                 Output Shape              Param #   
=================================================================
embedding_1 (Embedding)      (None, 40, 20)            58700     
_________________________________________________________________
lstm_1 (LSTM)                (None, 100)               48400     
_________________________________________________________________
dense_1 (Dense)              (None, 100)               10100     
_________________________________________________________________
batch_normalization_1 (Batch (None, 100)               400       
_________________________________________________________________
dropout_1 (Dropout)          (None, 100)               0         
_________________________________________________________________
dense_2 (Dense)              (None, 1)                 101       
=================================================================
Total params: 117,701
Trainable params: 117,501
Non-trainable params: 200
_________________________________________________________________
None
Train on 1096 samples, validate on 1096 samples
Epoch 1/5

 128/1096 [==>...........................] - ETA: 9s - loss: 0.7616 - acc: 0.4453 - precision: 0.7377 - recall: 0.4500 - f2_score: 0.3516
…
